normal.pt (torch_old, 75134 bytes, 6 tensors)

cnn1.weight f4 [16, 1, 5, 5]
00000000: 4e3d 0d3e fe15 8cbd 154b 15bc fa1f a93d
00000010: f1d3 103e dd37 983d 2c64 1abe 2098 9abe
00000020: 165f d8be ac91 a8be 34fb 893e 7da9 933e
00000030: 0e55 83bd fa3b 983d 033f 223e 52a6 123e
00000040: a364 e13e f5b7 ff3e fcf7 3e3e 3bde a43c
00000050: 2771 a3ba e3af a1bd 3955 983e b803 1e3e
00000060: 5361 dc3d 6079 2ebe c3c0 8abe 2ba3 563e
00000070: 8709 b33e 001e 923d 8030 c5be d2bc 85be
00000080: 49a7 0a3f 65e7 d63e e8d9 873c 8057 e0be
00000090: 59dc 413d 7dd1 603f 0166 323e 7659 b8be
000000a0: 6ea9 11bd 474d cb3e 7887 aa3e c81a 4cbe
000000b0: c309 ff3c 858c 9ebd f812 893e d817 a03d
000000c0: ac7b 40be 6bfc 703d ae7b 863d 648b 823d
000000d0: 5fbd 8b3e 9021 0e3e 64a3 ad3e 0933 60be
000000e0: 13d2 3bbe 1cfc 84be 93ab 793e e5d7 eb3d
000000f0: 72e0 2abe 7c00 35be e530 6abe 88ce 5f3e
00000100: 5b1a 04bc 9595 0bbd 8753 6b3d 4e1a 913d
00000110: a4c8 e6bd 28cf 3e3e 1d84 833e 556a 95bd
00000120: 8f22 2bbe e75b 07bd 437f f4bd 5411 563e
00000130: 134c 0a3f 966a 283f d45c 003f 95c9 bb3d
00000140: 59ba 813b 7aeb 813e 7f68 293f ad24 403f
00000150: 162f a53e d88b 1cbe 2bba e8be 995a 06bf
00000160: 1a43 94bc a6fe ae3e 5c53 83be d81d ccbe
00000170: 9d8a f0be 3101 6dbe 775e 02be a4d3 b33d
00000180: 06ec 4dbc 0b21 bf3d e029 ee3c 53cf 023d
00000190: ef8f a63d 847e a1bd 79e0 083d 02c5 9f3d
000001a0: 0f93 123e cd61 7dbe 1768 2c3c 37e4 ab3d
000001b0: cb36 a2bd 954e 2bbe 76fb 423d ef04 8f3e
000001c0: 0374 b53e 8f0e da3d 7a79 05be 9dc0 3e3d
000001d0: cbe2 9b3e 6aad 37bd 9da3 53be 2205 f73c
000001e0: b6e4 103e 174f 933e 30bf 58bd 9681 7fbe
000001f0: 6d9c 10be 77be 5abe b79e 0abe a086 6cbd
00000200: 7739 02be 794c 39be 7fea b7bd 4bb6 9dbd
00000210: 9907 1abd 4c2d b9bd 51f8 0b3e afbe c6bd
00000220: 80b3 d13d 0bea 31be fa7f 063e e6a2 d43d
00000230: d9e9 853e a985 be3d 5224 273e 4e31 f6bc
00000240: 9298 debd 7129 273e 6fbd f83d 5ec1 c03e
00000250: 7aea 483e 8063 193e bb98 eabd 57eb 843e
00000260: af45 983d 4093 573e 2c27 0b3e e679 813d
00000270: 13a3 9f3d 758d babd 7aff 4abd 0ea2 043e
00000280: b854 72bd f67a 923d ac5a b5bd a7c8 4ebe
00000290: 198f c93d 7a7d ecbd 0da7 e2bd af24 15be
000002a0: 032d 8c3d c8c1 913e 85c8 4d3e cc67 1fbe
000002b0: 67e9 f2bd 6128 623e c104 973d c16b a13d
000002c0: 66b0 153d 9a5c 7a3e cf5b dcbd a001 4b3c
000002d0: 9e40 b53d 9186 963e 810a 713d 2e05 8dbe
000002e0: 55ea 1ebc c946 4f3e ca7f b13e 7ac1 a9bb
000002f0: 03d2 8bbe f4de 75bd 475a 8a3e b5d8 593e
00000300: dddf b3be 02b8 33be 907c de3d cec7 923e
00000310: ff32 223e e410 7ebe 462e 11be 1471 a43d
00000320: 8f58 b0bd 8767 863e b060 853e be88 0b3e
00000330: 289b 2b3e 289b 2ebe e98a b43d 56e5 113f
00000340: 472f 573e 60f1 1dbe d5e3 2cbd e32d 993e
00000350: 26ea a73e 616b 0abd f238 61bd ff25 b13d
00000360: a3fe e5bc 4407 933e 8b05 f9bd ea1b 0dbe
00000370: 7418 6d3d f5e4 103e 6be7 323d 104a dd3d
00000380: 230d 82bd 152d 22be 988d 77be 13d2 97be
00000390: eec2 cc3d 31de 343e d3cf 74be 2a68 47be
000003a0: 1f9c 93be 4ef4 0c3f 50d1 8e3d 9968 f53d
000003b0: d3fe 82bd 2d74 733e 8367 0a3f d17f c2bd
000003c0: 2582 a63c d33e 11be 2ed2 8c3e a301 c63e
000003d0: 435f 14be 1bfd 56bd 907d cd3d 1f48 9a3e
000003e0: f35e 0e3e a65a e13d bb98 bb3d 1cbe 7d3e
000003f0: 369c 7abd 89ff b8be 8e72 37be cc96 913e
0.13792917 -0.06840132 -0.009112139 0.08258052 0.14143349 0.0743253 -0.15077275 -0.30194187
-0.42260045 -0.3292364 0.26949465 0.28840247 -0.06412707 0.074333146 0.1584435 0.14321259
0.44022092 0.49945036 0.18649286 0.020125499 -0.0012469635 -0.07894876 0.2975252 0.15431106
0.107607506 -0.17038488 -0.2710019 0.20960681 0.34968206 0.07134628 -0.38513565 -0.2612062
0.54161507 0.41973415 0.016583398 -0.43816757 0.04732928 0.87819654 0.17421724 -0.36005753
-0.03556197 0.39707395 0.3330648 -0.19932091 0.031132584 -0.07741646 0.26772285 0.07817048
-0.18797177 0.058834475 0.06566559 0.06374243 0.27292916 0.1387999 0.3391372 -0.21894468
-0.18341856 -0.25973594 0.24381857 0.11515788 -0.16687182 -0.17675966 -0.22870214 0.21856129
-0.008062924 -0.0340782 0.057452705 0.07085095 -0.11268738 0.18633711 0.25686732 -0.07295672
-0.16712402 -0.03304663 -0.11938336 0.20905048 0.5402233 0.6578764 0.50141644 0.09169308
0.003958982 0.25374967 0.66175073 0.7505596 0.32262486 -0.15287721 -0.45454535 -0.5248199
-0.018098403 0.34178656 -0.25649536 -0.3986652 -0.46980754 -0.23144986 -0.12731348 0.087806016
-0.012568479 0.09332474 0.029072702 0.031936 0.08132922 -0.07885459 0.0334172 0.07801248
0.14313911 -0.2474434 0.010522864 0.08393138 -0.07920607 -0.16729195 0.047603093 0.27933452
0.35440072 0.10647308 -0.13034621 0.04657041 0.30446467 -0.044843115 -0.20667882 0.030153815
0.14149746 0.28771278 -0.052916706 -0.24951777 -0.14122172 -0.21361719 -0.13537107 -0.057745576
-0.12717234 -0.18095578 -0.089802735 -0.07700785 -0.037604902 -0.09041843 0.13668944 -0.09704339
0.10239315 -0.17374437 0.13134757 0.10382633 0.26154974 0.093028374 0.16322449 -0.030052807
-0.10868944 0.16324402 0.121455066 0.37647527 0.19620696 0.14979362 -0.11454912 0.259608
0.07435166 0.21052265 0.13589162 0.063220784 0.07794776 -0.09109012 -0.049560048 0.12952444
-0.059162825 0.07152359 -0.08855185 -0.2019373 0.09841747 -0.1154737 -0.11067019 -0.14564775
0.06844523 0.28468156 0.20096023 -0.15566939 -0.11860924 0.22085716 0.073739536 0.078818806
0.03654518 0.24449387 -0.107596986 0.012390524 0.088502154 0.2939954 0.058847908 -0.27543014
-0.009699424 0.20241846 0.34667808 -0.005180535 -0.27308664 -0.060027078 0.27022 0.21274073
-0.35131732 -0.17550662 0.10863602 0.28668064 0.15839766 -0.24811131 -0.14177808 0.080293804
-0.08610641 0.2625086 0.2605033 0.13626382 0.16758406 -0.17051375 0.088155575 0.56990564
0.21014129 -0.15424109 -0.042209465 0.2991782 0.3279583 -0.03379381 -0.054985948 0.08649825
-0.028075522 0.2871648 -0.1215926 -0.1378018 0.05788465 0.1414984 0.04367773 0.10805142
-0.06350162 -0.1583751 -0.24175107 -0.2965246 0.099981174 0.17662884 -0.23907404 -0.19473329
-0.28830048 0.5506028 0.06973517 0.11982841 -0.0639626 0.23774786 0.54064196 -0.09497035
0.02032573 -0.14184122 0.27504104 0.38673124 -0.14489464 -0.052487474 0.10033715 0.3013315
0.13903408 0.11003618 0.091599904 0.24779552 -0.06118413 -0.36132458 -0.17914793 0.2843536

cnn1.bias f4 [16]
00000000: a0d0 0b3c cc63 bfbb a072 513e 55d2 e53b
00000010: f0e0 05be 3f71 023d cfb4 92bc afc0 0fbe
00000020: 540b dfb9 5098 1aba 9652 813b 15ed 8fbb
00000030: ec0e 97bc 20ca b03b 9696 f2ba aeae 103d
0.008533627 -0.005840754 0.20453882 0.007013599 -0.13074088 0.03184628 -0.017908482 -0.14038347
-0.00042542315 -0.000589733 0.0039466126 -0.004392276 -0.018439732 0.005395189 -0.0018508013 0.035322838

cnn2.weight f4 [32, 16, 5, 5]
00000000: 32d3 febc fd81 193d 1047 28bb cbe8 a4bd
00000010: 9dc9 d4bd aae4 963c 82b0 0c3d 26e1 013c
00000020: 623a a3bc 18d8 24bd bb48 9f3c 7544 e0bc
00000030: fd59 03bd c7ef 33be 646f 853d 674e 95bd
00000040: 380e 44bc 82b0 f7bd 0951 fcbd 5d3f 753d
00000050: b33f 22bd 55a8 c43b e8d4 0f3c a8c7 11bd
00000060: 6441 7d3d 8dcf 21bd e13a 8cbd ce1d 8abd
00000070: 3d73 73bd 9a72 b83d 35d3 b4bc 3935 3e3b
00000080: 2838 3ebc 1672 aebd 92f0 9c3e 1454 c13c
00000090: 200b e63c f1ef 06be 58e2 12bd df25 233e
000000a0: 5f7a df3d 4bb5 66bc e377 0cbe fe04 3b3e
000000b0: da01 8dba 774c 0fbd 261e bbbc 629e 48bd
000000c0: f31a 8f3d b3f2 a4bc 10b3 e8bc 5d90 86bc
000000d0: 5b42 603d 6e14 0abd 692d 2cbc 5103 553d
000000e0: ff92 033d 3ed5 d9bb 82ce eb3c f9eb e03a
000000f0: 6e9c e4ba 89fd 063b b15e d93b deb0 133e
00000100: 6cbf bcbd 9313 963c da5d b9bc 503b 22bd
00000110: 2ac7 ac3d eedd 193c 1fa7 733d 2090 c2bd
00000120: 0cd4 04bd 601d cfbc 3c00 29bd f0f3 a13c
00000130: 49d8 a63d 081b 03bc 91f7 97bd e2d5 2ebe
00000140: c58d 25bd dfb8 b53c aff4 38bb 1019 aebb
00000150: d3f3 2fbe 624c 44bc 6614 5e3c bdfe 043d
00000160: c987 283d 2fd3 49be d0f5 cf3d 3d14 31bd
00000170: 1ae3 fdbd c0f9 843b 4fc5 3fbe 2ff1 8c3d
00000180: 7c83 a3bd 9a03 21be 1943 18be a414 b0bd
00000190: beab 8cbc 2a47 51bc 7a43 94bd 3bbe 393b
000001a0: b270 913d 7d6d aebc 3662 14bc 4e02 68bd
000001b0: ae3d 97bc ad80 e83d c41d 163d 7ac0 3a3d
000001c0: c50c dcbc b90a 353d 76f9 6c3d cb06 433d
000001d0: f8dc 653d 5584 f23b 46f7 3439 4ace 15bd
000001e0: 5998 2c3c 0601 4ebd 47f9 4f3d d9af 0f3d
000001f0: 4cca 12bd 0464 423c 1c1e 00bd e948 323b
00000200: 849b f23c c3f8 643d 16a4 3a3d 4191 3d3c
00000210: bd91 30bd a4c3 0e3d d167 49bd 5da4 94bc
00000220: 8f60 12bc 3d27 61bd ee2c 21bd aedf 03bd
00000230: 4962 d6bc f206 5dbd 9ee5 1fbd 5f5b 90bd
00000240: 7854 963b 45b3 a6bb f8df 53bc 02e9 9dbd
00000250: c6dd 63bd 48e6 38bd f316 863a 5dfb 133d
00000260: 3830 993c 5d73 b33d 3713 763d c339 4dbd
00000270: fc42 18bc 60de 8fbd 72c6 953c 7e31 a33c
00000280: c093 a93c 0299 323a 57d8 eb3c d468 58ba
00000290: fdbc a93c 71a2 bdba 7911 b5bc 2ec6 293d
000002a0: f632 91bb c31d 483c 00f9 96bc a4fa 41bc
000002b0: edc8 1bbd a21e 173c 7d96 1dbd 0550 43bd
000002c0: dac0 d8bc 40fb efbb 5cfc 48bc 728d 0e3e
000002d0: 8484 6bbc 3fde 1c3d ab38 803c 57cf d0bb
000002e0: 1d9a ea3d d157 aebb 03c4 373d a9d1 bf3c
000002f0: d445 6d3d ce2c d13d 35fa 30bd 19e1 823d
00000300: 9004 163d d7eb 9e3d 9227 443d 1878 c3bc
00000310: fcba f83b 5bed 23bd 82b3 993d 37d5 a43c
00000320: 2254 a3bc 13a1 3d3a f6b9 953c 9f03 1abd
00000330: 723c a63b 4f1b 3a3d 42ef 14bd 333a 24bd
00000340: 2201 43bd 5f75 223e c852 713a 3e6e 143d
00000350: c848 b3bd 375f 873c 0d6a ee3d 4ff6 dc3d
00000360: 9032 8f3d 5d5a 14be a3a2 4c3d 0be8 f13d
00000370: 3798 5b3d 638e 67bc 93ac 11be a9cf 3a3d
00000380: 603c 4a3d 3754 5cbc da1c 73bd d611 7ebd
00000390: 313c 46bd 4db4 d83d 0cdc 6c3d a9b4 3cbd
000003a0: 9abb e2bd 4fa0 1c3e b486 cc3d 84de 043d
000003b0: 34a6 1a3a 52d6 e1bd 31c4 7b3e 802f 963b
000003c0: 51dc a13c fe09 4ebd 4b38 98bd e0ef 813e
000003d0: eeba 19be 178b 3d3d 53fe 81bd 1d35 043a
000003e0: 7610 f03d 29c5 31be 4b2f e53b 914a 233c
000003f0: bef2 51bc a3ea 04be 2222 05be 7d59 723d
-0.031106565 0.037477482 -0.0025677122 -0.08052214 -0.10390017 0.018419582 0.03434802 0.007927215
-0.0199253 -0.040245146 0.01944386 -0.027376393 -0.03206824 -0.17571937 0.06515387 -0.07290345
-0.011966281 -0.12094213 -0.12320144 0.05987488 -0.03961153 0.006001512 0.008778788 -0.035590798
0.06182994 -0.039504576 -0.06847168 -0.06743966 -0.05943607 0.090062335 -0.022073368 0.0029023422
-0.011610068 -0.08517854 0.3065229 0.023599662 0.028081477 -0.13177468 -0.03586039 0.15932415
0.10912012 -0.01408131 -0.13717608 0.18263623 -0.0010757998 -0.034985032 -0.022841524 -0.04897917
0.06987562 -0.02013526 -0.028405696 -0.01642626 0.05475078 -0.03371089 -0.0105088735 0.052005116
0.03212261 -0.006647735 0.028784994 0.0017160169 -0.0017441639 0.0020597896 0.0066336025 0.14422938
-0.09216198 0.01831988 -0.02262776 -0.039607346 0.08436425 0.009391291 0.05948555 -0.09500146
-0.032428786 -0.025282562 -0.04125999 0.019769639 0.08146722 -0.00800205 -0.074202664 -0.17073777
-0.040418405 0.02218288 -0.0028222015 -0.0053130463 -0.17182855 -0.011981102 0.013554668 0.0324695
0.04114512 -0.19709466 0.10154307 -0.04323219 -0.12396832 0.004058093 -0.18727611 0.068819396
-0.07984063 -0.1572403 -0.14869346 -0.08597687 -0.017171737 -0.0127733145 -0.07239433 0.0028342146
0.07101573 -0.021292442 -0.009056618 -0.056642823 -0.018462028 0.11352668 0.03664948 0.045593716
-0.026861558 0.04419968 0.057855092 0.0476139 0.056118935 0.007401029 0.00017258254 -0.036573686
0.010534369 -0.050293945 0.05077484 0.03507981 -0.035837457 0.011864666 -0.031278715 0.0027204102
0.029615171 0.0559013 0.04556664 0.011570276 -0.043107737 0.034854546 -0.049171273 -0.01814478
-0.008934154 -0.05496906 -0.03934949 -0.03219574 -0.026169913 -0.0539617 -0.03903734 -0.07048678
0.004587706 -0.0050872886 -0.012931816 -0.07710458 -0.05563142 -0.04514149 0.0010230228 0.03612839
0.01869975 0.08762238 0.06007692 -0.050103914 -0.009293314 -0.070248365 0.018283103 0.01992106
0.020700336 0.0006812961 0.028789682 -0.00082553667 0.02072 -0.0014467967 -0.022103058 0.041448765
-0.004431124 0.012214127 -0.01842928 -0.011839543 -0.038033415 0.009223612 -0.038473595 -0.047683734
-0.026459146 -0.0073236525 -0.012267198 0.13921145 -0.014374856 0.038297888 0.015652021 -0.006372373
0.11455176 -0.005320527 0.044864666 0.023415403 0.05792792 0.10213624 -0.043207366 0.0639059
0.036625445 0.07759827 0.0478893 -0.023860976 0.0075906496 -0.04002128 0.075049415 0.0201212
-0.019937579 0.000723378 0.01827715 -0.03760111 0.0050731236 0.0454362 -0.036360987 -0.040094566
-0.047608502 0.15865086 0.0009205756 0.036237948 -0.08754116 0.016524894 0.11641321 0.10789167
0.06992066 -0.14487596 0.04995979 0.11811837 0.05361196 -0.014133069 -0.14225988 0.045608196
0.049373984 -0.013447813 -0.059353687 -0.06202873 -0.048397247 0.10581265 0.05782704 -0.04607073
-0.110709384 0.15295528 0.0998663 0.03243877 0.00058994 -0.110272065 0.2458656 0.004583299
0.019758375 -0.050302498 -0.07432612 0.25378323 -0.15012714 0.046275225 -0.063473366 0.0005043315
0.1172189 -0.17360367 0.006994163 0.0099665085 -0.012814222 -0.12980132 -0.13001302 0.059167374

cnn2.bias f4 [32]
00000000: 9366 91bc 32af b73c 765c b0bd e950 1bbd
00000010: c02a 363d 81dd 0a3d 1710 383d 0400 37bd
00000020: 1b42 fb3c 8343 653d beec 063d bc85 7dbd
00000030: b570 16bd ad52 a8bd 447d c9bc 5614 13bd
00000040: cc9f 3b3c b5b8 c33c b26b 563c f43c 8bbc
00000050: 7cd2 5fbd 51fe 0e3d 1230 38bd eb34 b1ba
00000060: 79ca 1e3d 38c5 8abd 8e1c fa3c e960 033d
00000070: 0a13 e3bc d012 94bc 883a 453c 84f3 14bd
-0.017749107 0.022422407 -0.086113855 -0.03791896 0.044474363 0.03390265 0.04493722 -0.04467775
0.03067117 0.055972587 0.03294062 -0.061895117 -0.03672858 -0.08218894 -0.024595864 -0.035908066
0.011451673 0.023891786 0.0130872 -0.016996838 -0.054644093 0.034910504 -0.04496772 -0.0013519799
0.03876731 -0.06775898 0.030531194 0.032074843 -0.02771904 -0.018075377 0.012037881 -0.036365047

fc1.weight f4 [10, 512]
00000000: 423b 50bd 0e4a b13c eb18 85bd 707b 313d
00000010: 4b76 5e3e 8849 e8bd de0c cb3d 5156 9cba
00000020: 8a20 da3e 6637 adbe 5d7d 0f3c c6b0 183d
00000030: 4d52 0dbd 8e62 43be 7cea bc3b b50b 95bd
00000040: 5583 2ebd f4c0 69bd 3ddb 923d 326a babd
00000050: 8f2d c2bd 55f7 6ebd e09c 313c 9947 ed3d
00000060: b536 f2bb 68ed 263e 8d6b 3bbe 1abf 1a3d
00000070: 3d8a 02bd 7c7d b4bc 873b ebbd 9cfe 24bd
00000080: 8058 7abd 95a4 3c3d 4032 14bd 2969 66bd
00000090: 6f85 863d e7b6 44bd 0702 6abd 1d68 1fbd
000000a0: 20fa 43bd 391e 303d dd9d 88bc c6a8 b23d
000000b0: 7b8b d03c 832c d9bd 43ef 803d fc92 68bd
000000c0: cd1b d3b9 f0fb 4d3d 0a1f ec3b 69b3 56bd
000000d0: b744 4d3d c01b 9c3d 634b b93d 94f5 9cbc
000000e0: 3ff4 283d bee9 ac3b 0ed2 2abe ae6f 7ebc
000000f0: ded6 233d 6f78 53bc 92b4 abbb 3a5c c73c
00000100: b1f9 093d 1d73 23bc 3f46 f83c ca4f 0f3c
00000110: 837b a93c cd93 2d3d eeb4 cc3c 70c1 19bd
00000120: 94d7 c5bc 2950 2f3d 6766 c53d 7602 89bb
00000130: 0210 803b fde9 973d 5228 5ebd 9599 6cbd
00000140: 3364 93bc 3f66 a5bd edaf a63b 3e93 103d
00000150: 3ed7 673d d463 483e 28bf 9fbd 6773 993d
00000160: 9aff 6d3c 52c6 053d ef8c aabd 86b4 69bd
00000170: dd5b c9bc 38d0 a93c d7ae 373d bea1 583c
00000180: 33c5 0b3c 81ba 613b 8547 493d 5892 8c3c
00000190: 2a7d 2f3d ac68 5cbc 077d 05be 0ad4 c0bc
000001a0: 4f42 bcbc 5130 4f3d aad5 aabd 48ae 103c
000001b0: 1441 93bd 4303 8a3d a49c 553d fd82 7b3c
000001c0: 386c 09bc 3e17 0abb c9b7 a23b d176 12bd
000001d0: c432 aabd 1fdd 9a3c e31f 9e3d c464 c03d
000001e0: 9744 0fbd a7e1 c23d 0dee 333d f4a1 42bd
000001f0: a9f2 d23c 1417 003d 89a0 cebd f6b3 5bbd
00000200: 25ce 073c 95b0 603c 739e 8ebc 628e b43c
00000210: a6b8 e7bb 0627 fd3d d28d c0bd 4d68 2d3c
00000220: 9c8f e3bc 5f39 68bd b51f 03bd dc18 e93d
00000230: d3cc 42bd e481 ef3d 944a 47be d32a 32bd
00000240: 179e 2bbd 9ff0 453d ed18 d4bb 5aef 0ebd
00000250: 45e1 873c 7901 993d 6536 bf3b 115e 9bbd
00000260: 89a4 06be 1c59 7e3d 63df bdbd 9755 173c
00000270: 066f 6fbd 5b63 303e c49f 883c ce15 a8bc
00000280: 733a 65bd 9c04 8dbd b58b b33c 31e1 863c
00000290: 6eaa 88bc 76ef ec3d 5af7 c83c 16b4 c23c
000002a0: cd59 3abd 7272 1abd 2136 a03c b19d 0cbd
000002b0: 25ff 8f3c 8f12 253d 0c2d bd39 c8e8 113b
000002c0: 4c75 683d 70a7 133c a036 b63d 6a73 d03d
000002d0: 1801 28bd 3f2b e53d 8358 3dbd 86b7 91be
000002e0: 43a7 12be 8d87 ca3d 01dd c5bc f095 f7bd
000002f0: 672a 2ebd bae0 ef3c adca 623d a81b 743d
00000300: 1be0 f4bb d31a fabc 99c9 63bd c6b8 b1bc
00000310: 3a55 403b 1dac 01bd 6e21 f03c 88cc 9e3d
00000320: 0648 33bd 1521 e6bc 3337 eb3d b67e 603d
00000330: cb94 b03b a635 8fbc fb4e b3bd 2096 b93c
00000340: 08cb 4c3d 7f88 1f3d 5db1 1c3d 1d80 25bd
00000350: c6d8 cdbd 8872 f43d f075 bebc b592 1d3c
00000360: 4154 a53d 4161 be3b bfe6 883c 1cd0 54bd
00000370: 97c8 28bd cbe1 eb3d cbf4 103e 5102 45bd
00000380: 0476 9b3c 9e35 df3c 7daf 42bc 68cd 963c
00000390: b775 eebc e83d 9fbc 8315 0e3d b575 c1bd
000003a0: c0e4 01bc bab3 823c 87aa 253d 03c8 563d
000003b0: bb0c 09bb 6aa5 03bd 20dc e5bc b472 ba3c
000003c0: 69a4 edbc e60c 233c 3c6c ab3c fb13 493c
000003d0: 5756 f73b 4635 6bbc fd63 863d da3b 2e3d
000003e0: 999c 213d 6448 c6bc a1d1 d4bc 0798 25be
000003f0: ba9e d33c b7cf d3bc 96c7 1fbc 303b 3cbd
-0.050837763 0.021641757 -0.06498893 0.04333061 0.21724813 -0.1134215 0.099145636 -0.001192758
0.4260295 -0.33831328 0.008757916 0.03727796 -0.034502316 -0.19080564 0.0057652574 -0.072776236
-0.042605717 -0.05706878 0.07170723 -0.091022864 -0.09481346 -0.058341343 0.010840625 0.11585922
-0.0073917755 0.16301501 -0.18302746 0.037779905 -0.031870116 -0.022032492 -0.11485963 -0.040281877
-0.061119556 0.046055395 -0.036180735 -0.056252632 0.06568419 -0.04802599 -0.05713084 -0.03891765
-0.04784596 0.042997573 -0.016676838 0.08723597 0.025457134 -0.10604193 0.062956356 -0.0567808
-0.0004026577 0.050289094 0.0072058486 -0.052417193 0.05011436 0.076224804 0.09047582 -0.01916007
0.041248556 0.0052768877 -0.16681692 -0.015529556 0.039999835 -0.012907132 -0.0052400315 0.02433597
0.03368539 -0.009976176 0.030306933 0.008747051 0.020688778 0.042377282 0.024988618 -0.037537992
-0.024150647 0.042801056 0.09638672 -0.0041812016 0.0039081583 0.074176766 -0.05423767 -0.057763655
-0.017992115 -0.080761425 0.00508689 0.03529667 0.056601755 0.19569331 -0.07800132 0.074927144
0.014526272 0.032659836 -0.08327662 -0.057056926 -0.024579937 0.02072917 0.044844475 0.013222156
0.008530903 0.003444344 0.049140472 0.017159626 0.042843975 -0.01345269 -0.13035975 -0.023538608
-0.022980837 0.050583187 -0.083415344 0.008830614 -0.07190147 0.067389034 0.052151337 0.015351054
-0.008387618 -0.0021070982 0.0049657566 -0.035757843 -0.08310464 0.018904267 0.07720926 0.093942195
-0.03497752 0.09515696 0.043928195 -0.04751773 0.025750475 0.03127201 -0.100892134 -0.05363842
0.008288895 0.013713975 -0.017409539 0.02204055 -0.0070715724 0.12360959 -0.0940205 0.010583949
-0.02777844 -0.05669534 -0.03201266 0.11381695 -0.047558617 0.116946965 -0.19462043 -0.04349787
-0.041898813 0.048325177 -0.006472698 -0.034896232 0.01658691 0.07470984 0.0058353418 -0.07586301
-0.13148703 0.0620967 -0.09271123 0.009236715 -0.05845549 0.17225401 0.016677745 -0.02051821
-0.055963945 -0.06885645 0.021917203 0.016464802 -0.01668283 0.11569111 0.024532009 0.023767512
-0.045495797 -0.0377068 0.01955706 -0.034330074 0.017577717 0.040300902 0.00036082452 0.0022263993
0.056752488 0.009012088 0.08897138 0.101782635 -0.041016668 0.11189889 -0.04622699 -0.2846033
-0.14321618 0.098891355 -0.024153234 -0.12089145 -0.042520907 0.029281963 0.055369068 0.059596688
-0.0074730045 -0.030530369 -0.05561218 -0.021694552 0.0029347674 -0.03165828 0.029312816 0.07753855
-0.04376986 -0.028091947 0.11485138 0.05480834 0.0053888313 -0.017481636 -0.08755299 0.022654593
0.049998313 0.038948532 0.038255084 -0.04040538 -0.10051112 0.119359076 -0.023249596 0.009617497
0.08072711 0.0058099334 0.01671159 -0.05195628 -0.041206922 0.11517676 0.14155881 -0.048097912
0.018977173 0.027247246 -0.01188266 0.018408492 -0.029108865 -0.019438699 0.034688484 -0.09446279
-0.007928073 0.01595484 0.04044583 0.05243684 -0.002091213 -0.032140173 -0.028059065 0.022759773
-0.029009061 0.009951806 0.020925634 0.01227283 0.0075481343 -0.014355963 0.0656204 0.042537548
0.039455984 -0.02420444 -0.025978865 -0.16171275 0.025832523 -0.025855882 -0.009752175 -0.045954883

fc1.bias f4 [10]
00000000: 40dd a7bd 5aac bc3d f843 82bc b07d 5bbd
00000010: 0326 11bc e7f4 b03d 0138 85bd 8478 bf3c
00000020: e08e 613c 0bd0 cf3c
-0.08196497 0.09212561 -0.01590155 -0.05358666 -0.00885916 0.086404614 -0.065048225 0.023372896
0.013766974 0.025367757
